…
              (proj_drop): Dropout(p=0.0, inplace=False)
              (dropout_layer): Identity()
            )
            (1): MultiheadAttention(
              (attn): MultiheadAttention(
                (out_proj): NonDynamicallyQuantizableLinear(in_features=192, out_features=192, bias=True)
              )
              (proj_drop): Dropout(p=0.0, inplace=False)
              (dropout_layer): Identity()
            )
          )
          (ffns): ModuleList(
            (0): FFN(
              (activate): ReLU(inplace=True)
              (layers): Sequential(
                (0): Sequential(
                  (0): Linear(in_features=192, out_features=1536, bias=True)
                  (1): ReLU(inplace=True)
                  (2): Dropout(p=0.0, inplace=False)
                )
                (1): Linear(in_features=1536, out_features=192, bias=True)
                (2): Dropout(p=0.0, inplace=False)
              )
              (dropout_layer): Identity()
            )
          )
          (norms): ModuleList(
            (0): LayerNorm((192,), eps=1e-05, elementwise_affine=True)
            (1): LayerNorm((192,), eps=1e-05, elementwise_affine=True)
            (2): LayerNorm((192,), eps=1e-05, elementwise_affine=True)
          )
        )
        (1): DetrTransformerDecoderLayer(
          (attentions): ModuleList(
            (0): MultiheadAttention(
              (attn): MultiheadAttention(
                (out_proj): NonDynamicallyQuantizableLinear(in_features=192, out_features=192, bias=True)
              )
              (proj_drop): Dropout(p=0.0, inplace=False)
…
              (proj_drop): Dropout(p=0.0, inplace=False)
              (dropout_layer): Identity()
            )
            (1): MultiheadAttention(
              (attn): MultiheadAttention(
                (out_proj): NonDynamicallyQuantizableLinear(in_features=192, out_features=192, bias=True)
              )
              (proj_drop): Dropout(p=0.0, inplace=False)
              (dropout_layer): Identity()
            )
          )
          (ffns): ModuleList(
            (0): FFN(
              (activate): ReLU(inplace=True)
              (layers): Sequential(
                (0): Sequential(
                  (0): Linear(in_features=192, out_features=1536, bias=True)
                  (1): ReLU(inplace=True)
                  (2): Dropout(p=0.0, inplace=False)
                )
                (1): Linear(in_features=1536, out_features=192, bias=True)
                (2): Dropout(p=0.0, inplace=False)
              )
              (dropout_layer): Identity()
            )
          )
          (norms): ModuleList(
            (0): LayerNorm((192,), eps=1e-05, elementwise_affine=True)
            (1): LayerNorm((192,), eps=1e-05, elementwise_affine=True)
            (2): LayerNorm((192,), eps=1e-05, elementwise_affine=True)
          )
        )
      )
      (post_norm): LayerNorm((192,), eps=1e-05, elementwise_affine=True)
    )
    (decoder_input_projs): ModuleList(
      (0): Identity()
      (1): Identity()
      (2): Identity()
    )
    (decoder_positional_encoding): SinePositionalEncoding3D(num_feats=64.0, temperature=10000, normalize=True, scale=6.283185307179586, eps=1e-06)
    (query_embed): Embedding(100, 192)
    (query_feat): Embedding(100, 192)
    (level_embed): Embedding(3, 192)
    (cls_embed): Linear(in_features=192, out_features=21, bias=True)
    (mask_embed): Sequential(
      (0): Linear(in_features=192, out_features=192, bias=True)
      (1): ReLU(inplace=True)
      (2): Linear(in_features=192, out_features=192, bias=True)
      (3): ReLU(inplace=True)
      (4): Linear(in_features=192, out_features=192, bias=True)
    )
    (loss_cls): CrossEntropyLoss()
    (loss_mask): CrossEntropyLoss()
    (loss_dice): DiceLoss()
  )
  (img_backbone): ResNet(
    (conv1): Conv2d(3, 64, kernel_size=(7, 7), stride=(2, 2), padding=(3, 3), bias=False)
    (bn1): SyncBatchNorm(64, eps=1e-05, momentum=0.1, affine=True, track_running_stats=True)
    (relu): ReLU(inplace=True)
    (maxpool): MaxPool2d(kernel_size=3, stride=2, padding=1, dilation=1, ceil_mode=False)
    (layer1): ResLayer(
      (0): Bottleneck(
        (conv1): Conv2d(64, 64, kernel_size=(1, 1), stride=(1, 1), bias=False)
        (bn1): SyncBatchNorm(64, eps=1e-05, momentum=0.1, affine=True, track_running_stats=True)
        (conv2): Conv2d(64, 64, kernel_size=(3, 3), stride=(1, 1), padding=(1, 1), bias=False)
        (bn2): SyncBatchNorm(64, eps=1e-05, momentum=0.1, affine=True, track_running_stats=True)
        (conv3): Conv2d(64, 256, kernel_size=(1, 1), stride=(1, 1), bias=False)
        (bn3): SyncBatchNorm(256, eps=1e-05, momentum=0.1, affine=True, track_running_stats=True)
        (relu): ReLU(inplace=True)
        (downsample): Sequential(
          (0): Conv2d(64, 256, kernel_size=(1, 1), stride=(1, 1), bias=False)
          (1): SyncBatchNorm(256, eps=1e-05, momentum=0.1, affine=True, track_running_stats=True)
        )
      )
      (1): Bottleneck(
        (conv1): Conv2d(256, 64, kernel_size=(1, 1), stride=(1, 1), bias=False)
        (bn1): SyncBatchNorm(64, eps=1e-05, momentum=0.1, affine=True, track_running_stats=True)
        (conv2): Conv2d(64, 64, kernel_size=(3, 3), stride=(1, 1), padding=(1, 1), bias=False)
        (bn2): SyncBatchNorm(64, eps=1e-05, momentum=0.1, affine=True, track_running_stats=True)
        (conv3): Conv2d(64, 256, kernel_size=(1, 1), stride=(1, 1), bias=False)
        (bn3): SyncBatchNorm(256, eps=1e-05, momentum=0.1, affine=True, track_running_stats=True)
        (relu): ReLU(inplace=True)
      )
      (2): Bottleneck(
        (conv1): Conv2d(256, 64, kernel_size=(1, 1), stride=(1, 1), bias=False)
        (bn1): SyncBatchNorm(64, eps=1e-05, momentum=0.1, affine=True, track_running_stats=True)
        (conv2): Conv2d(64, 64, kernel_size=(3, 3), stride=(1, 1), padding=(1, 1), bias=False)
        (bn2): SyncBatchNorm(64, eps=1e-05, momentum=0.1, affine=True, track_running_stats=True)
        (conv3): Conv2d(64, 256, kernel_size=(1, 1), stride=(1, 1), bias=False)
        (bn3): SyncBatchNorm(256, eps=1e-05, momentum=0.1, affine=True, track_running_stats=True)
        (relu): ReLU(inplace=True)
      )
    )
    (layer2): ResLayer(
      (0): Bottleneck(
        (conv1): Conv2d(256, 128, kernel_size=(1, 1), stride=(1, 1), bias=False)
        (bn1): SyncBatchNorm(128, eps=1e-05, momentum=0.1, affine=True, track_running_stats=True)
        (conv2): Conv2d(128, 128, kernel_size=(3, 3), stride=(2, 2), padding=(1, 1), bias=False)
        (bn2): SyncBatchNorm(128, eps=1e-05, momentum=0.1, affine=True, track_running_stats=True)
        (conv3): Conv2d(128, 512, kernel_size=(1, 1), stride=(1, 1), bias=False)
        (bn3): SyncBatchNorm(512, eps=1e-05, momentum=0.1, affine=True, track_running_stats=True)
        (relu): ReLU(inplace=True)
        (downsample): Sequential(
          (0): Conv2d(256, 512, kernel_size=(1, 1), stride=(2, 2), bias=False)
          (1): SyncBatchNorm(512, eps=1e-05, momentum=0.1, affine=True, track_running_stats=True)
        )
      )
      (1): Bottleneck(
        (conv1): Conv2d(512, 128, kernel_size=(1, 1), stride=(1, 1), bias=False)
        (bn1): SyncBatchNorm(128, eps=1e-05, momentum=0.1, affine=True, track_running_stats=True)
        (conv2): Conv2d(128, 128, kernel_size=(3, 3), stride=(1, 1), padding=(1, 1), bias=False)
        (bn2): SyncBatchNorm(128, eps=1e-05, momentum=0.1, affine=True, track_running_stats=True)
        (conv3): Conv2d(128, 512, kernel_size=(1, 1), stride=(1, 1), bias=False)
        (bn3): SyncBatchNorm(512, eps=1e-05, momentum=0.1, affine=True, track_running_stats=True)
        (relu): ReLU(inplace=True)
      )
      (2): Bottleneck(
        (conv1): Conv2d(512, 128, kernel_size=(1, 1), stride=(1, 1), bias=False)
        (bn1): SyncBatchNorm(128, eps=1e-05, momentum=0.1, affine=True, track_running_stats=True)
        (conv2): Conv2d(128, 128, kernel_size=(3, 3), stride=(1, 1), padding=(1, 1), bias=False)
        (bn2): SyncBatchNorm(128, eps=1e-05, momentum=0.1, affine=True, track_running_stats=True)
        (conv3): Conv2d(128, 512, kernel_size=(1, 1), stride=(1, 1), bias=False)
        (bn3): SyncBatchNorm(512, eps=1e-05, momentum=0.1, affine=True, track_running_stats=True)
        (relu): ReLU(inplace=True)
      )
      (3): Bottleneck(
        (conv1): Conv2d(512, 128, kernel_size=(1, 1), stride=(1, 1), bias=False)
        (bn1): SyncBatchNorm(128, eps=1e-05, momentum=0.1, affine=True, track_running_stats=True)
        (conv2): Conv2d(128, 128, kernel_size=(3, 3), stride=(1, 1), padding=(1, 1), bias=False)
        (bn2): SyncBatchNorm(128, eps=1e-05, momentum=0.1, affine=True, track_running_stats=True)
        (conv3): Conv2d(128, 512, kernel_size=(1, 1), stride=(1, 1), bias=False)
        (bn3): SyncBatchNorm(512, eps=1e-05, momentum=0.1, affine=True, track_running_stats=True)
        (relu): ReLU(inplace=True)
      )
    )
    (layer3): ResLayer(
      (0): Bottleneck(
        (conv1): Conv2d(512, 256, kernel_size=(1, 1), stride=(1, 1), bias=False)
        (bn1): SyncBatchNorm(256, eps=1e-05, momentum=0.1, affine=True, track_running_stats=True)
        (conv2): Conv2d(256, 256, kernel_size=(3, 3), stride=(2, 2), padding=(1, 1), bias=False)
        (bn2): SyncBatchNorm(256, eps=1e-05, momentum=0.1, affine=True, track_running_stats=True)
        (conv3): Conv2d(256, 1024, kernel_size=(1, 1), stride=(1, 1), bias=False)
        (bn3): SyncBatchNorm(1024, eps=1e-05, momentum=0.1, affine=True, track_running_stats=True)
        (relu): ReLU(inplace=True)
        (downsample): Sequential(
          (0): Conv2d(512, 1024, kernel_size=(1, 1), stride=(2, 2), bias=False)
          (1): SyncBatchNorm(1024, eps=1e-05, momentum=0.1, affine=True, track_running_stats=True)
        )
      )
      (1): Bottleneck(
        (conv1): Conv2d(1024, 256, kernel_size=(1, 1), stride=(1, 1), bias=False)
        (bn1): SyncBatchNorm(256, eps=1e-05, momentum=0.1, affine=True, track_running_stats=True)
        (conv2): Conv2d(256, 256, kernel_size=(3, 3), stride=(1, 1), padding=(1, 1), bias=False)
        (bn2): SyncBatchNorm(256, eps=1e-05, momentum=0.1, affine=True, track_running_stats=True)
        (conv3): Conv2d(256, 1024, kernel_size=(1, 1), stride=(1, 1), bias=False)
        (bn3): SyncBatchNorm(1024, eps=1e-05, momentum=0.1, affine=True, track_running_stats=True)
        (relu): ReLU(inplace=True)
      )
      (2): Bottleneck(
        (conv1): Conv2d(1024, 256, kernel_size=(1, 1), stride=(1, 1), bias=False)
        (bn1): SyncBatchNorm(256, eps=1e-05, momentum=0.1, affine=True, track_running_stats=True)
        (conv2): Conv2d(256, 256, kernel_size=(3, 3), stride=(1, 1), padding=(1, 1), bias=False)
        (bn2): SyncBatchNorm(256, eps=1e-05, momentum=0.1, affine=True, track_running_stats=True)
        (conv3): Conv2d(256, 1024, kernel_size=(1, 1), stride=(1, 1), bias=False)
        (bn3): SyncBatchNorm(1024, eps=1e-05, momentum=0.1, affine=True, track_running_stats=True)
        (relu): ReLU(inplace=True)
      )
      (3): Bottleneck(
        (conv1): Conv2d(1024, 256, kernel_size=(1, 1), stride=(1, 1), bias=False)
        (bn1): SyncBatchNorm(256, eps=1e-05, momentum=0.1, affine=True, track_running_stats=True)
        (conv2): Conv2d(256, 256, kernel_size=(3, 3), stride=(1, 1), padding=(1, 1), bias=False)
        (bn2): SyncBatchNorm(256, eps=1e-05, momentum=0.1, affine=True, track_running_stats=True)
        (conv3): Conv2d(256, 1024, kernel_size=(1, 1), stride=(1, 1), bias=False)
        (bn3): SyncBatchNorm(1024, eps=1e-05, momentum=0.1, affine=True, track_running_stats=True)
        (relu): ReLU(inplace=True)
      )
      (4): Bottleneck(
        (conv1): Conv2d(1024, 256, kernel_size=(1, 1), stride=(1, 1), bias=False)
        (bn1): SyncBatchNorm(256, eps=1e-05, momentum=0.1, affine=True, track_running_stats=True)
        (conv2): Conv2d(256, 256, kernel_size=(3, 3), stride=(1, 1), padding=(1, 1), bias=False)
        (bn2): SyncBatchNorm(256, eps=1e-05, momentum=0.1, affine=True, track_running_stats=True)
        (conv3): Conv2d(256, 1024, kernel_size=(1, 1), stride=(1, 1), bias=False)
        (bn3): SyncBatchNorm(1024, eps=1e-05, momentum=0.1, affine=True, track_running_stats=True)
        (relu): ReLU(inplace=True)
      )
      (5): Bottleneck(
        (conv1): Conv2d(1024, 256, kernel_size=(1, 1), stride=(1, 1), bias=False)
        (bn1): SyncBatchNorm(256, eps=1e-05, momentum=0.1, affine=True, track_running_stats=True)
        (conv2): Conv2d(256, 256, kernel_size=(3, 3), stride=(1, 1), padding=(1, 1), bias=False)
        (bn2): SyncBatchNorm(256, eps=1e-05, momentum=0.1, affine=True, track_running_stats=True)
        (conv3): Conv2d(256, 1024, kernel_size=(1, 1), stride=(1, 1), bias=False)
        (bn3): SyncBatchNorm(1024, eps=1e-05, momentum=0.1, affine=True, track_running_stats=True)
        (relu): ReLU(inplace=True)
      )
    )
    (layer4): ResLayer(
      (0): Bottleneck(
        (conv1): Conv2d(1024, 512, kernel_size=(1, 1), stride=(1, 1), bias=False)
        (bn1): SyncBatchNorm(512, eps=1e-05, momentum=0.1, affine=True, track_running_stats=True)
        (conv2): Conv2d(512, 512, kernel_size=(3, 3), stride=(2, 2), padding=(1, 1), bias=False)
        (bn2): SyncBatchNorm(512, eps=1e-05, momentum=0.1, affine=True, track_running_stats=True)
        (conv3): Conv2d(512, 2048, kernel_size=(1, 1), stride=(1, 1), bias=False)
        (bn3): SyncBatchNorm(2048, eps=1e-05, momentum=0.1, affine=True, track_running_stats=True)
        (relu): ReLU(inplace=True)
        (downsample): Sequential(
          (0): Conv2d(1024, 2048, kernel_size=(1, 1), stride=(2, 2), bias=False)
          (1): SyncBatchNorm(2048, eps=1e-05, momentum=0.1, affine=True, track_running_stats=True)
        )
      )
      (1): Bottleneck(
        (conv1): Conv2d(2048, 512, kernel_size=(1, 1), stride=(1, 1), bias=False)
        (bn1): SyncBatchNorm(512, eps=1e-05, momentum=0.1, affine=True, track_running_stats=True)
        (conv2): Conv2d(512, 512, kernel_size=(3, 3), stride=(1, 1), padding=(1, 1), bias=False)
        (bn2): SyncBatchNorm(512, eps=1e-05, momentum=0.1, affine=True, track_running_stats=True)
        (conv3): Conv2d(512, 2048, kernel_size=(1, 1), stride=(1, 1), bias=False)
        (bn3): SyncBatchNorm(2048, eps=1e-05, momentum=0.1, affine=True, track_running_stats=True)
        (relu): ReLU(inplace=True)
      )
      (2): Bottleneck(
        (conv1): Conv2d(2048, 512, kernel_size=(1, 1), stride=(1, 1), bias=False)
        (bn1): SyncBatchNorm(512, eps=1e-05, momentum=0.1, affine=True, track_running_stats=True)
        (conv2): Conv2d(512, 512, kernel_size=(3, 3), stride=(1, 1), padding=(1, 1), bias=False)
        (bn2): SyncBatchNorm(512, eps=1e-05, momentum=0.1, affine=True, track_running_stats=True)
        (conv3): Conv2d(512, 2048, kernel_size=(1, 1), stride=(1, 1), bias=False)
        (bn3): SyncBatchNorm(2048, eps=1e-05, momentum=0.1, affine=True, track_running_stats=True)
        (relu): ReLU(inplace=True)
      )
    )
  )
  init_cfg={'type': 'Pretrained', 'checkpoint': 'ckpts/resnet50-0676ba61.pth'}
  (img_neck): SECONDFPN(
    (deblocks): ModuleList(
      (0): Sequential(
        (0): Conv2d(256, 128, kernel_size=(4, 4), stride=(4, 4), bias=False)
        (1): SyncBatchNorm(128, eps=0.001, momentum=0.01, affine=True, track_running_stats=True)
        (2): ReLU(inplace=True)
      )
      (1): Sequential(
        (0): Conv2d(512, 128, kernel_size=(2, 2), stride=(2, 2), bias=False)
        (1): SyncBatchNorm(128, eps=0.001, momentum=0.01, affine=True, track_running_stats=True)
        (2): ReLU(inplace=True)
      )
      (2): Sequential(
        (0): ConvTranspose2d(1024, 128, kernel_size=(1, 1), stride=(1, 1), bias=False)
        (1): SyncBatchNorm(128, eps=0.001, momentum=0.01, affine=True, track_running_stats=True)
        (2): ReLU(inplace=True)
      )
      (3): Sequential(
        (0): ConvTranspose2d(2048, 128, kernel_size=(2, 2), stride=(2, 2), bias=False)
        (1): SyncBatchNorm(128, eps=0.001, momentum=0.01, affine=True, track_running_stats=True)
        (2): ReLU(inplace=True)
      )
    )
  )
  init_cfg=[{'type': 'Kaiming', 'layer': 'ConvTranspose2d'}, {'type': 'Constant', 'layer': 'NaiveSyncBatchNorm2d', 'val': 1.0}]
  (img_view_transformer): ViewTransformerLiftSplatShootVoxel(
    (depth_net): DepthNet(
      (reduce_conv): Sequential(
        (0): Conv2d(512, 512, kernel_size=(3, 3), stride=(1, 1), padding=(1, 1))
        (1): SyncBatchNorm(512, eps=1e-05, momentum=0.1, affine=True, track_running_stats=True)
        (2): ReLU(inplace=True)
      )
      (context_conv): Conv2d(512, 128, kernel_size=(1, 1), stride=(1, 1))
      (bn): SyncBatchNorm(33, eps=1e-05, momentum=0.1, affine=True, track_running_stats=True)
      (depth_mlp): Mlp(
        (fc1): Linear(in_features=33, out_features=512, bias=True)
        (act): ReLU()
        (drop1): Dropout(p=0.0, inplace=False)
        (fc2): Linear(in_features=512, out_features=512, bias=True)
        (drop2): Dropout(p=0.0, inplace=False)
      )
      (depth_se): SELayer(
        (conv_reduce): Conv2d(512, 512, kernel_size=(1, 1), stride=(1, 1))
        (act1): ReLU()
        (conv_expand): Conv2d(512, 512, kernel_size=(1, 1), stride=(1, 1))
        (gate): Sigmoid()
      )
      (context_mlp): Mlp(
        (fc1): Linear(in_features=33, out_features=512, bias=True)
        (act): ReLU()
        (drop1): Dropout(p=0.0, inplace=False)
        (fc2): Linear(in_features=512, out_features=512, bias=True)
        (drop2): Dropout(p=0.0, inplace=False)
      )
      (context_se): SELayer(
        (conv_reduce): Conv2d(512, 512, kernel_size=(1, 1), stride=(1, 1))
        (act1): ReLU()
        (conv_expand): Conv2d(512, 512, kernel_size=(1, 1), stride=(1, 1))
        (gate): Sigmoid()
      )
      (depth_conv): Sequential(
        (0): BasicBlock(
          (conv1): Conv2d(512, 512, kernel_size=(3, 3), stride=(1, 1), padding=(1, 1), bias=False)
          (bn1): SyncBatchNorm(512, eps=1e-05, momentum=0.1, affine=True, track_running_stats=True)
          (conv2): Conv2d(512, 512, kernel_size=(3, 3), stride=(1, 1), padding=(1, 1), bias=False)
          (bn2): SyncBatchNorm(512, eps=1e-05, momentum=0.1, affine=True, track_running_stats=True)
          (relu): ReLU(inplace=True)
        )
        (1): BasicBlock(
          (conv1): Conv2d(512, 512, kernel_size=(3, 3), stride=(1, 1), padding=(1, 1), bias=False)
          (bn1): SyncBatchNorm(512, eps=1e-05, momentum=0.1, affine=True, track_running_stats=True)
          (conv2): Conv2d(512, 512, kernel_size=(3, 3), stride=(1, 1), padding=(1, 1), bias=False)
          (bn2): SyncBatchNorm(512, eps=1e-05, momentum=0.1, affine=True, track_running_stats=True)
          (relu): ReLU(inplace=True)
        )
        (2): BasicBlock(
          (conv1): Conv2d(512, 512, kernel_size=(3, 3), stride=(1, 1), padding=(1, 1), bias=False)
          (bn1): SyncBatchNorm(512, eps=1e-05, momentum=0.1, affine=True, track_running_stats=True)
          (conv2): Conv2d(512, 512, kernel_size=(3, 3), stride=(1, 1), padding=(1, 1), bias=False)
          (bn2): SyncBatchNorm(512, eps=1e-05, momentum=0.1, affine=True, track_running_stats=True)
          (relu): ReLU(inplace=True)
        )
        (3): ASPP(
          (aspp1): _ASPPModule(
            (atrous_conv): Conv2d(512, 512, kernel_size=(1, 1), stride=(1, 1), bias=False)
            (bn): SyncBatchNorm(512, eps=1e-05, momentum=0.1, affine=True, track_running_stats=True)
            (relu): ReLU()
          )
          (aspp2): _ASPPModule(
            (atrous_conv): Conv2d(512, 512, kernel_size=(3, 3), stride=(1, 1), padding=(6, 6), dilation=(6, 6), bias=False)
            (bn): SyncBatchNorm(512, eps=1e-05, momentum=0.1, affine=True, track_running_stats=True)
            (relu): ReLU()
          )
          (aspp3): _ASPPModule(
            (atrous_conv): Conv2d(512, 512, kernel_size=(3, 3), stride=(1, 1), padding=(12, 12), dilation=(12, 12), bias=False)
            (bn): SyncBatchNorm(512, eps=1e-05, momentum=0.1, affine=True, track_running_stats=True)
            (relu): ReLU()
          )
          (aspp4): _ASPPModule(
            (atrous_conv): Conv2d(512, 512, kernel_size=(3, 3), stride=(1, 1), padding=(18, 18), dilation=(18, 18), bias=False)
            (bn): SyncBatchNorm(512, eps=1e-05, momentum=0.1, affine=True, track_running_stats=True)
            (relu): ReLU()
          )
          (global_avg_pool): Sequential(
            (0): AdaptiveAvgPool2d(output_size=(1, 1))
            (1): Conv2d(512, 512, kernel_size=(1, 1), stride=(1, 1), bias=False)
            (2): SyncBatchNorm(512, eps=1e-05, momentum=0.1, affine=True, track_running_stats=True)
            (3): ReLU()
          )
          (conv1): Conv2d(2560, 512, kernel_size=(1, 1), stride=(1, 1), bias=False)
          (bn1): SyncBatchNorm(512, eps=1e-05, momentum=0.1, affine=True, track_running_stats=True)
          (relu): ReLU()
          (dropout): Dropout(p=0.5, inplace=False)
        )
        (4): DeformConv2dPack(in_channels=512,
        out_channels=512,
        kernel_size=(3, 3),
        stride=(1, 1),
        padding=(1, 1),
        dilation=(1, 1),
        groups=4,
        deform_groups=1,
        bias=False)
        (5): Conv2d(512, 112, kernel_size=(1, 1), stride=(1, 1))
      )
    )
  )
  (img_bev_encoder_backbone): OccupancyEncoder(
    (layers): ModuleList(
      (0): Sequential(
        (0): DualpathTransformerBlock(
          (downsample): Identity()
          (input_conv): Sequential(
            (0): Conv3d(128, 128, kernel_size=(3, 3, 3), stride=(1, 1, 1), padding=(1, 1, 1), bias=False)
            (1): GroupNorm(32, 128, eps=1e-05, affine=True)
            (2): ReLU(inplace=True)
          )
          (bev_encoder): SwinBlock(
            (norm1): LayerNorm((128,), eps=1e-05, elementwise_affine=True)
            (attn): ShiftWindowMSA(
              (w_msa): WindowMSA(
                (qkv): Linear(in_features=128, out_features=384, bias=True)
                (attn_drop): Dropout(p=0.0, inplace=False)
                (proj): Linear(in_features=128, out_features=128, bias=True)
                (proj_drop): Dropout(p=0.0, inplace=False)
                (softmax): Softmax(dim=-1)
              )
              (drop): DropPath()
            )
            (norm2): LayerNorm((128,), eps=1e-05, elementwise_affine=True)
            (ffn): FFN(
              (activate): GELU()
              (layers): Sequential(
                (0): Sequential(
                  (0): Linear(in_features=128, out_features=128, bias=True)
                  (1): GELU()
                  (2): Dropout(p=0.0, inplace=False)
                )
                (1): Linear(in_features=128, out_features=128, bias=True)
                (2): Dropout(p=0.0, inplace=False)
              )
              (dropout_layer): DropPath()
            )
          )
          (aspp): BottleNeckASPP(
            (input_conv): Sequential(
              (0): Conv2d(128, 32, kernel_size=(1, 1), stride=(1, 1), bias=False)
              (1): GroupNorm(32, 32, eps=1e-05, affine=True)
              (2): ReLU(inplace=True)
            )
            (aspp): ASPP(
              (aspp1): _ASPPModule(
                (atrous_conv): Conv2d(32, 32, kernel_size=(1, 1), stride=(1, 1), bias=False)
                (bn): GroupNorm(16, 32, eps=1e-05, affine=True)
                (relu): ReLU(inplace=True)
              )
              (aspp2): _ASPPModule(
                (atrous_conv): Conv2d(32, 32, kernel_size=(3, 3), stride=(1, 1), padding=(6, 6), dilation=(6, 6), bias=False)
                (bn): GroupNorm(16, 32, eps=1e-05, affine=True)
                (relu): ReLU(inplace=True)
              )
              (aspp3): _ASPPModule(
                (atrous_conv): Conv2d(32, 32, kernel_size=(3, 3), stride=(1, 1), padding=(12, 12), dilation=(12, 12), bias=False)
                (bn): GroupNorm(16, 32, eps=1e-05, affine=True)
                (relu): ReLU(inplace=True)
              )
              (aspp4): _ASPPModule(
                (atrous_conv): Conv2d(32, 32, kernel_size=(3, 3), stride=(1, 1), padding=(18, 18), dilation=(18, 18), bias=False)
                (bn): GroupNorm(16, 32, eps=1e-05, affine=True)
                (relu): ReLU(inplace=True)
              )
              (global_avg_pool): Sequential(
                (0): AdaptiveAvgPool2d(output_size=(1, 1))
                (1): Conv2d(32, 32, kernel_size=(1, 1), stride=(1, 1), bias=False)
                (2): GroupNorm(16, 32, eps=1e-05, affine=True)
                (3): ReLU(inplace=True)
              )
              (conv1): Conv2d(160, 32, kernel_size=(1, 1), stride=(1, 1), bias=False)
              (bn1): GroupNorm(16, 32, eps=1e-05, affine=True)
              (relu): ReLU(inplace=True)
              (dropout): Dropout(p=0.1, inplace=False)
            )
            (output_conv): Sequential(
              (0): Conv2d(32, 128, kernel_size=(1, 1), stride=(1, 1), bias=False)
              (1): GroupNorm(32, 128, eps=1e-05, affine=True)
              (2): ReLU(inplace=True)
            )
          )
          (combine_coeff): Conv3d(128, 1, kernel_size=(1, 1, 1), stride=(1, 1, 1))
        )
        (1): DualpathTransformerBlock(
          (downsample): Identity()
          (input_conv): Sequential(
            (0): Conv3d(128, 128, kernel_size=(3, 3, 3), stride=(1, 1, 1), padding=(1, 1, 1), bias=False)
            (1): GroupNorm(32, 128, eps=1e-05, affine=True)
            (2): ReLU(inplace=True)
          )
          (bev_encoder): SwinBlock(
            (norm1): LayerNorm((128,), eps=1e-05, elementwise_affine=True)
            (attn): ShiftWindowMSA(
              (w_msa): WindowMSA(
                (qkv): Linear(in_features=128, out_features=384, bias=True)
                (attn_drop): Dropout(p=0.0, inplace=False)
                (proj): Linear(in_features=128, out_features=128, bias=True)
                (proj_drop): Dropout(p=0.0, inplace=False)
                (softmax): Softmax(dim=-1)
              )
              (drop): DropPath()
            )
            (norm2): LayerNorm((128,), eps=1e-05, elementwise_affine=True)
            (ffn): FFN(
              (activate): GELU()
              (layers): Sequential(
                (0): Sequential(
                  (0): Linear(in_features=128, out_features=128, bias=True)
                  (1): GELU()
                  (2): Dropout(p=0.0, inplace=False)
                )
                (1): Linear(in_features=128, out_features=128, bias=True)
                (2): Dropout(p=0.0, inplace=False)
              )
              (dropout_layer): DropPath()
            )
          )
          (aspp): BottleNeckASPP(
            (input_conv): Sequential(
              (0): Conv2d(128, 32, kernel_size=(1, 1), stride=(1, 1), bias=False)
              (1): GroupNorm(32, 32, eps=1e-05, affine=True)
              (2): ReLU(inplace=True)
            )
            (aspp): ASPP(
              (aspp1): _ASPPModule(
                (atrous_conv): Conv2d(32, 32, kernel_size=(1, 1), stride=(1, 1), bias=False)
                (bn): GroupNorm(16, 32, eps=1e-05, affine=True)
                (relu): ReLU(inplace=True)
              )
              (aspp2): _ASPPModule(
                (atrous_conv): Conv2d(32, 32, kernel_size=(3, 3), stride=(1, 1), padding=(6, 6), dilation=(6, 6), bias=False)
                (bn): GroupNorm(16, 32, eps=1e-05, affine=True)
                (relu): ReLU(inplace=True)
              )
              (aspp3): _ASPPModule(
                (atrous_conv): Conv2d(32, 32, kernel_size=(3, 3), stride=(1, 1), padding=(12, 12), dilation=(12, 12), bias=False)
                (bn): GroupNorm(16, 32, eps=1e-05, affine=True)
                (relu): ReLU(inplace=True)
              )
              (aspp4): _ASPPModule(
                (atrous_conv): Conv2d(32, 32, kernel_size=(3, 3), stride=(1, 1), padding=(18, 18), dilation=(18, 18), bias=False)
                (bn): GroupNorm(16, 32, eps=1e-05, affine=True)
                (relu): ReLU(inplace=True)
              )
              (global_avg_pool): Sequential(
                (0): AdaptiveAvgPool2d(output_size=(1, 1))
                (1): Conv2d(32, 32, kernel_size=(1, 1), stride=(1, 1), bias=False)
                (2): GroupNorm(16, 32, eps=1e-05, affine=True)
                (3): ReLU(inplace=True)
              )
              (conv1): Conv2d(160, 32, kernel_size=(1, 1), stride=(1, 1), bias=False)
              (bn1): GroupNorm(16, 32, eps=1e-05, affine=True)
              (relu): ReLU(inplace=True)
              (dropout): Dropout(p=0.1, inplace=False)
            )
            (output_conv): Sequential(
              (0): Conv2d(32, 128, kernel_size=(1, 1), stride=(1, 1), bias=False)
              (1): GroupNorm(32, 128, eps=1e-05, affine=True)
              (2): ReLU(inplace=True)
            )
          )
          (combine_coeff): Conv3d(128, 1, kernel_size=(1, 1, 1), stride=(1, 1, 1))
        )
      )
      (1): Sequential(
        (0): DualpathTransformerBlock(
          (downsample): Sequential(
            (0): Conv3d(128, 256, kernel_size=(1, 1, 1), stride=(2, 2, 2), bias=False)
            (1): GroupNorm(32, 256, eps=1e-05, affine=True)
          )
          (input_conv): Sequential(
            (0): Conv3d(128, 256, kernel_size=(3, 3, 3), stride=(2, 2, 2), padding=(1, 1, 1), bias=False)
            (1): GroupNorm(32, 256, eps=1e-05, affine=True)
            (2): ReLU(inplace=True)
          )
          (bev_encoder): SwinBlock(
            (norm1): LayerNorm((256,), eps=1e-05, elementwise_affine=True)
            (attn): ShiftWindowMSA(
              (w_msa): WindowMSA(
                (qkv): Linear(in_features=256, out_features=768, bias=True)
                (attn_drop): Dropout(p=0.0, inplace=False)
                (proj): Linear(in_features=256, out_features=256, bias=True)
                (proj_drop): Dropout(p=0.0, inplace=False)
                (softmax): Softmax(dim=-1)
              )
              (drop): DropPath()
            )
            (norm2): LayerNorm((256,), eps=1e-05, elementwise_affine=True)
            (ffn): FFN(
              (activate): GELU()
              (layers): Sequential(
                (0): Sequential(
                  (0): Linear(in_features=256, out_features=256, bias=True)
                  (1): GELU()
                  (2): Dropout(p=0.0, inplace=False)
                )
                (1): Linear(in_features=256, out_features=256, bias=True)
                (2): Dropout(p=0.0, inplace=False)
              )
              (dropout_layer): DropPath()
            )
          )
          (aspp): BottleNeckASPP(
            (input_conv): Sequential(
              (0): Conv2d(256, 64, kernel_size=(1, 1), stride=(1, 1), bias=False)
              (1): GroupNorm(32, 64, eps=1e-05, affine=True)
              (2): ReLU(inplace=True)
            )
            (aspp): ASPP(
              (aspp1): _ASPPModule(
                (atrous_conv): Conv2d(64, 64, kernel_size=(1, 1), stride=(1, 1), bias=False)
                (bn): GroupNorm(32, 64, eps=1e-05, affine=True)
                (relu): ReLU(inplace=True)
              )
              (aspp2): _ASPPModule(
                (atrous_conv): Conv2d(64, 64, kernel_size=(3, 3), stride=(1, 1), padding=(6, 6), dilation=(6, 6), bias=False)
                (bn): GroupNorm(32, 64, eps=1e-05, affine=True)
                (relu): ReLU(inplace=True)
              )
              (aspp3): _ASPPModule(
                (atrous_conv): Conv2d(64, 64, kernel_size=(3, 3), stride=(1, 1), padding=(12, 12), dilation=(12, 12), bias=False)
                (bn): GroupNorm(32, 64, eps=1e-05, affine=True)
                (relu): ReLU(inplace=True)
              )
              (aspp4): _ASPPModule(
                (atrous_conv): Conv2d(64, 64, kernel_size=(3, 3), stride=(1, 1), padding=(18, 18), dilation=(18, 18), bias=False)
                (bn): GroupNorm(32, 64, eps=1e-05, affine=True)
                (relu): ReLU(inplace=True)
              )
              (global_avg_pool): Sequential(
                (0): AdaptiveAvgPool2d(output_size=(1, 1))
                (1): Conv2d(64, 64, kernel_size=(1, 1), stride=(1, 1), bias=False)
                (2): GroupNorm(32, 64, eps=1e-05, affine=True)
                (3): ReLU(inplace=True)
              )
              (conv1): Conv2d(320, 64, kernel_size=(1, 1), stride=(1, 1), bias=False)
              (bn1): GroupNorm(32, 64, eps=1e-05, affine=True)
              (relu): ReLU(inplace=True)
              (dropout): Dropout(p=0.1, inplace=False)
            )
            (output_conv): Sequential(
              (0): Conv2d(64, 256, kernel_size=(1, 1), stride=(1, 1), bias=False)
              (1): GroupNorm(32, 256, eps=1e-05, affine=True)
              (2): ReLU(inplace=True)
            )
          )
          (combine_coeff): Conv3d(256, 1, kernel_size=(1, 1, 1), stride=(1, 1, 1))
        )
        (1): DualpathTransformerBlock(
          (downsample): Identity()
          (input_conv): Sequential(
            (0): Conv3d(256, 256, kernel_size=(3, 3, 3), stride=(1, 1, 1), padding=(1, 1, 1), bias=False)
            (1): GroupNorm(32, 256, eps=1e-05, affine=True)
            (2): ReLU(inplace=True)
          )
          (bev_encoder): SwinBlock(
            (norm1): LayerNorm((256,), eps=1e-05, elementwise_affine=True)
            (attn): ShiftWindowMSA(
              (w_msa): WindowMSA(
                (qkv): Linear(in_features=256, out_features=768, bias=True)
                (attn_drop): Dropout(p=0.0, inplace=False)
                (proj): Linear(in_features=256, out_features=256, bias=True)
                (proj_drop): Dropout(p=0.0, inplace=False)
                (softmax): Softmax(dim=-1)
              )
              (drop): DropPath()
            )
            (norm2): LayerNorm((256,), eps=1e-05, elementwise_affine=True)
            (ffn): FFN(
              (activate): GELU()
              (layers): Sequential(
                (0): Sequential(
                  (0): Linear(in_features=256, out_features=256, bias=True)
                  (1): GELU()
                  (2): Dropout(p=0.0, inplace=False)
                )
                (1): Linear(in_features=256, out_features=256, bias=True)
                (2): Dropout(p=0.0, inplace=False)
              )
              (dropout_layer): DropPath()
            )
          )
          (aspp): BottleNeckASPP(
            (input_conv): Sequential(
              (0): Conv2d(256, 64, kernel_size=(1, 1), stride=(1, 1), bias=False)
              (1): GroupNorm(32, 64, eps=1e-05, affine=True)
              (2): ReLU(inplace=True)
            )
            (aspp): ASPP(
              (aspp1): _ASPPModule(
                (atrous_conv): Conv2d(64, 64, kernel_size=(1, 1), stride=(1, 1), bias=False)
                (bn): GroupNorm(32, 64, eps=1e-05, affine=True)
                (relu): ReLU(inplace=True)
              )
              (aspp2): _ASPPModule(
                (atrous_conv): Conv2d(64, 64, kernel_size=(3, 3), stride=(1, 1), padding=(6, 6), dilation=(6, 6), bias=False)
                (bn): GroupNorm(32, 64, eps=1e-05, affine=True)
                (relu): ReLU(inplace=True)
              )
              (aspp3): _ASPPModule(
                (atrous_conv): Conv2d(64, 64, kernel_size=(3, 3), stride=(1, 1), padding=(12, 12), dilation=(12, 12), bias=False)
                (bn): GroupNorm(32, 64, eps=1e-05, affine=True)
                (relu): ReLU(inplace=True)
              )
              (aspp4): _ASPPModule(
                (atrous_conv): Conv2d(64, 64, kernel_size=(3, 3), stride=(1, 1), padding=(18, 18), dilation=(18, 18), bias=False)
                (bn): GroupNorm(32, 64, eps=1e-05, affine=True)
                (relu): ReLU(inplace=True)
              )
              (global_avg_pool): Sequential(
                (0): AdaptiveAvgPool2d(output_size=(1, 1))
                (1): Conv2d(64, 64, kernel_size=(1, 1), stride=(1, 1), bias=False)
                (2): GroupNorm(32, 64, eps=1e-05, affine=True)
                (3): ReLU(inplace=True)
              )
              (conv1): Conv2d(320, 64, kernel_size=(1, 1), stride=(1, 1), bias=False)
              (bn1): GroupNorm(32, 64, eps=1e-05, affine=True)
              (relu): ReLU(inplace=True)
              (dropout): Dropout(p=0.1, inplace=False)
            )
            (output_conv): Sequential(
              (0): Conv2d(64, 256, kernel_size=(1, 1), stride=(1, 1), bias=False)
              (1): GroupNorm(32, 256, eps=1e-05, affine=True)
              (2): ReLU(inplace=True)
            )
          )
          (combine_coeff): Conv3d(256, 1, kernel_size=(1, 1, 1), stride=(1, 1, 1))
        )
      )
      (2): Sequential(
        (0): DualpathTransformerBlock(
          (downsample): Sequential(
            (0): Conv3d(256, 512, kernel_size=(1, 1, 1), stride=(2, 2, 2), bias=False)
            (1): GroupNorm(32, 512, eps=1e-05, affine=True)
          )
          (input_conv): Sequential(
            (0): Conv3d(256, 512, kernel_size=(3, 3, 3), stride=(2, 2, 2), padding=(1, 1, 1), bias=False)
            (1): GroupNorm(32, 512, eps=1e-05, affine=True)
            (2): ReLU(inplace=True)
          )
          (bev_encoder): SwinBlock(
            (norm1): LayerNorm((512,), eps=1e-05, elementwise_affine=True)
            (attn): ShiftWindowMSA(
              (w_msa): WindowMSA(
                (qkv): Linear(in_features=512, out_features=1536, bias=True)
                (attn_drop): Dropout(p=0.0, inplace=False)
                (proj): Linear(in_features=512, out_features=512, bias=True)
                (proj_drop): Dropout(p=0.0, inplace=False)
                (softmax): Softmax(dim=-1)
              )
              (drop): DropPath()
            )
            (norm2): LayerNorm((512,), eps=1e-05, elementwise_affine=True)
            (ffn): FFN(
              (activate): GELU()
              (layers): Sequential(
                (0): Sequential(
                  (0): Linear(in_features=512, out_features=512, bias=True)
                  (1): GELU()
                  (2): Dropout(p=0.0, inplace=False)
                )
                (1): Linear(in_features=512, out_features=512, bias=True)
                (2): Dropout(p=0.0, inplace=False)
              )
              (dropout_layer): DropPath()
            )
          )
          (aspp): BottleNeckASPP(
            (input_conv): Sequential(
              (0): Conv2d(512, 128, kernel_size=(1, 1), stride=(1, 1), bias=False)
              (1): GroupNorm(32, 128, eps=1e-05, affine=True)
              (2): ReLU(inplace=True)
            )
            (aspp): ASPP(
              (aspp1): _ASPPModule(
                (atrous_conv): Conv2d(128, 128, kernel_size=(1, 1), stride=(1, 1), bias=False)
                (bn): GroupNorm(32, 128, eps=1e-05, affine=True)
                (relu): ReLU(inplace=True)
              )
              (aspp2): _ASPPModule(
                (atrous_conv): Conv2d(128, 128, kernel_size=(3, 3), stride=(1, 1), padding=(6, 6), dilation=(6, 6), bias=False)
                (bn): GroupNorm(32, 128, eps=1e-05, affine=True)
                (relu): ReLU(inplace=True)
              )
              (aspp3): _ASPPModule(
                (atrous_conv): Conv2d(128, 128, kernel_size=(3, 3), stride=(1, 1), padding=(12, 12), dilation=(12, 12), bias=False)
                (bn): GroupNorm(32, 128, eps=1e-05, affine=True)
                (relu): ReLU(inplace=True)
              )
              (aspp4): _ASPPModule(
                (atrous_conv): Conv2d(128, 128, kernel_size=(3, 3), stride=(1, 1), padding=(18, 18), dilation=(18, 18), bias=False)
                (bn): GroupNorm(32, 128, eps=1e-05, affine=True)
                (relu): ReLU(inplace=True)
              )
              (global_avg_pool): Sequential(
                (0): AdaptiveAvgPool2d(output_size=(1, 1))
                (1): Conv2d(128, 128, kernel_size=(1, 1), stride=(1, 1), bias=False)
                (2): GroupNorm(32, 128, eps=1e-05, affine=True)
                (3): ReLU(inplace=True)
              )
              (conv1): Conv2d(640, 128, kernel_size=(1, 1), stride=(1, 1), bias=False)
              (bn1): GroupNorm(32, 128, eps=1e-05, affine=True)
              (relu): ReLU(inplace=True)
              (dropout): Dropout(p=0.1, inplace=False)
            )
            (output_conv): Sequential(
              (0): Conv2d(128, 512, kernel_size=(1, 1), stride=(1, 1), bias=False)
              (1): GroupNorm(32, 512, eps=1e-05, affine=True)
              (2): ReLU(inplace=True)
            )
          )
          (combine_coeff): Conv3d(512, 1, kernel_size=(1, 1, 1), stride=(1, 1, 1))
        )
        (1): DualpathTransformerBlock(
          (downsample): Identity()
          (input_conv): Sequential(
            (0): Conv3d(512, 512, kernel_size=(3, 3, 3), stride=(1, 1, 1), padding=(1, 1, 1), bias=False)
            (1): GroupNorm(32, 512, eps=1e-05, affine=True)
            (2): ReLU(inplace=True)
          )
          (bev_encoder): SwinBlock(
            (norm1): LayerNorm((512,), eps=1e-05, elementwise_affine=True)
            (attn): ShiftWindowMSA(
              (w_msa): WindowMSA(
                (qkv): Linear(in_features=512, out_features=1536, bias=True)
                (attn_drop): Dropout(p=0.0, inplace=False)
                (proj): Linear(in_features=512, out_features=512, bias=True)
                (proj_drop): Dropout(p=0.0, inplace=False)
                (softmax): Softmax(dim=-1)
              )
              (drop): DropPath()
            )
            (norm2): LayerNorm((512,), eps=1e-05, elementwise_affine=True)
            (ffn): FFN(
              (activate): GELU()
              (layers): Sequential(
                (0): Sequential(
                  (0): Linear(in_features=512, out_features=512, bias=True)
                  (1): GELU()
                  (2): Dropout(p=0.0, inplace=False)
                )
                (1): Linear(in_features=512, out_features=512, bias=True)
                (2): Dropout(p=0.0, inplace=False)
              )
              (dropout_layer): DropPath()
            )
          )
          (aspp): BottleNeckASPP(
            (input_conv): Sequential(
              (0): Conv2d(512, 128, kernel_size=(1, 1), stride=(1, 1), bias=False)
              (1): GroupNorm(32, 128, eps=1e-05, affine=True)
              (2): ReLU(inplace=True)
            )
            (aspp): ASPP(
              (aspp1): _ASPPModule(
                (atrous_conv): Conv2d(128, 128, kernel_size=(1, 1), stride=(1, 1), bias=False)
                (bn): GroupNorm(32, 128, eps=1e-05, affine=True)
                (relu): ReLU(inplace=True)
              )
              (aspp2): _ASPPModule(
                (atrous_conv): Conv2d(128, 128, kernel_size=(3, 3), stride=(1, 1), padding=(6, 6), dilation=(6, 6), bias=False)
                (bn): GroupNorm(32, 128, eps=1e-05, affine=True)
                (relu): ReLU(inplace=True)
              )
              (aspp3): _ASPPModule(
                (atrous_conv): Conv2d(128, 128, kernel_size=(3, 3), stride=(1, 1), padding=(12, 12), dilation=(12, 12), bias=False)
                (bn): GroupNorm(32, 128, eps=1e-05, affine=True)
                (relu): ReLU(inplace=True)
              )
              (aspp4): _ASPPModule(
                (atrous_conv): Conv2d(128, 128, kernel_size=(3, 3), stride=(1, 1), padding=(18, 18), dilation=(18, 18), bias=False)
                (bn): GroupNorm(32, 128, eps=1e-05, affine=True)
                (relu): ReLU(inplace=True)
              )
              (global_avg_pool): Sequential(
                (0): AdaptiveAvgPool2d(output_size=(1, 1))
                (1): Conv2d(128, 128, kernel_size=(1, 1), stride=(1, 1), bias=False)
                (2): GroupNorm(32, 128, eps=1e-05, affine=True)
                (3): ReLU(inplace=True)
              )
              (conv1): Conv2d(640, 128, kernel_size=(1, 1), stride=(1, 1), bias=False)
              (bn1): GroupNorm(32, 128, eps=1e-05, affine=True)
              (relu): ReLU(inplace=True)
              (dropout): Dropout(p=0.1, inplace=False)
            )
            (output_conv): Sequential(
              (0): Conv2d(128, 512, kernel_size=(1, 1), stride=(1, 1), bias=False)
              (1): GroupNorm(32, 512, eps=1e-05, affine=True)
              (2): ReLU(inplace=True)
            )
          )
          (combine_coeff): Conv3d(512, 1, kernel_size=(1, 1, 1), stride=(1, 1, 1))
        )
      )
      (3): Sequential(
        (0): DualpathTransformerBlock(
          (downsample): Sequential(
            (0): Conv3d(512, 1024, kernel_size=(1, 1, 1), stride=(2, 2, 2), bias=False)
            (1): GroupNorm(32, 1024, eps=1e-05, affine=True)
          )
          (input_conv): Sequential(
            (0): Conv3d(512, 1024, kernel_size=(3, 3, 3), stride=(2, 2, 2), padding=(1, 1, 1), bias=False)
            (1): GroupNorm(32, 1024, eps=1e-05, affine=True)
            (2): ReLU(inplace=True)
          )
          (bev_encoder): SwinBlock(
            (norm1): LayerNorm((1024,), eps=1e-05, elementwise_affine=True)
            (attn): ShiftWindowMSA(
              (w_msa): WindowMSA(
                (qkv): Linear(in_features=1024, out_features=3072, bias=True)
                (attn_drop): Dropout(p=0.0, inplace=False)
                (proj): Linear(in_features=1024, out_features=1024, bias=True)
                (proj_drop): Dropout(p=0.0, inplace=False)
                (softmax): Softmax(dim=-1)
              )
              (drop): DropPath()
            )
            (norm2): LayerNorm((1024,), eps=1e-05, elementwise_affine=True)
            (ffn): FFN(
              (activate): GELU()
              (layers): Sequential(
                (0): Sequential(
                  (0): Linear(in_features=1024, out_features=1024, bias=True)
                  (1): GELU()
                  (2): Dropout(p=0.0, inplace=False)
                )
                (1): Linear(in_features=1024, out_features=1024, bias=True)
                (2): Dropout(p=0.0, inplace=False)
              )
              (dropout_layer): DropPath()
            )
          )
          (aspp): BottleNeckASPP(
            (input_conv): Sequential(
              (0): Conv2d(1024, 256, kernel_size=(1, 1), stride=(1, 1), bias=False)
              (1): GroupNorm(32, 256, eps=1e-05, affine=True)
              (2): ReLU(inplace=True)
            )
            (aspp): ASPP(
              (aspp1): _ASPPModule(
                (atrous_conv): Conv2d(256, 256, kernel_size=(1, 1), stride=(1, 1), bias=False)
                (bn): GroupNorm(32, 256, eps=1e-05, affine=True)
                (relu): ReLU(inplace=True)
              )
              (aspp2): _ASPPModule(
                (atrous_conv): Conv2d(256, 256, kernel_size=(3, 3), stride=(1, 1), padding=(6, 6), dilation=(6, 6), bias=False)
                (bn): GroupNorm(32, 256, eps=1e-05, affine=True)
                (relu): ReLU(inplace=True)
              )
              (aspp3): _ASPPModule(
                (atrous_conv): Conv2d(256, 256, kernel_size=(3, 3), stride=(1, 1), padding=(12, 12), dilation=(12, 12), bias=False)
                (bn): GroupNorm(32, 256, eps=1e-05, affine=True)
                (relu): ReLU(inplace=True)
              )
              (aspp4): _ASPPModule(
                (atrous_conv): Conv2d(256, 256, kernel_size=(3, 3), stride=(1, 1), padding=(18, 18), dilation=(18, 18), bias=False)
                (bn): GroupNorm(32, 256, eps=1e-05, affine=True)
                (relu): ReLU(inplace=True)
              )
              (global_avg_pool): Sequential(
                (0): AdaptiveAvgPool2d(output_size=(1, 1))
                (1): Conv2d(256, 256, kernel_size=(1, 1), stride=(1, 1), bias=False)
                (2): GroupNorm(32, 256, eps=1e-05, affine=True)
                (3): ReLU(inplace=True)
              )
              (conv1): Conv2d(1280, 256, kernel_size=(1, 1), stride=(1, 1), bias=False)
              (bn1): GroupNorm(32, 256, eps=1e-05, affine=True)
              (relu): ReLU(inplace=True)
              (dropout): Dropout(p=0.1, inplace=False)
            )
            (output_conv): Sequential(
              (0): Conv2d(256, 1024, kernel_size=(1, 1), stride=(1, 1), bias=False)
              (1): GroupNorm(32, 1024, eps=1e-05, affine=True)
              (2): ReLU(inplace=True)
            )
          )
          (combine_coeff): Conv3d(1024, 1, kernel_size=(1, 1, 1), stride=(1, 1, 1))
        )
        (1): DualpathTransformerBlock(
          (downsample): Identity()
          (input_conv): Sequential(
            (0): Conv3d(1024, 1024, kernel_size=(3, 3, 3), stride=(1, 1, 1), padding=(1, 1, 1), bias=False)
            (1): GroupNorm(32, 1024, eps=1e-05, affine=True)
            (2): ReLU(inplace=True)
          )
          (bev_encoder): SwinBlock(
            (norm1): LayerNorm((1024,), eps=1e-05, elementwise_affine=True)
            (attn): ShiftWindowMSA(
              (w_msa): WindowMSA(
                (qkv): Linear(in_features=1024, out_features=3072, bias=True)
                (attn_drop): Dropout(p=0.0, inplace=False)
                (proj): Linear(in_features=1024, out_features=1024, bias=True)
                (proj_drop): Dropout(p=0.0, inplace=False)
                (softmax): Softmax(dim=-1)
              )
              (drop): DropPath()
            )
            (norm2): LayerNorm((1024,), eps=1e-05, elementwise_affine=True)
            (ffn): FFN(
              (activate): GELU()
              (layers): Sequential(
                (0): Sequential(
                  (0): Linear(in_features=1024, out_features=1024, bias=True)
                  (1): GELU()
                  (2): Dropout(p=0.0, inplace=False)
                )
                (1): Linear(in_features=1024, out_features=1024, bias=True)
                (2): Dropout(p=0.0, inplace=False)
              )
              (dropout_layer): DropPath()
            )
          )
          (aspp): BottleNeckASPP(
            (input_conv): Sequential(
              (0): Conv2d(1024, 256, kernel_size=(1, 1), stride=(1, 1), bias=False)
              (1): GroupNorm(32, 256, eps=1e-05, affine=True)
              (2): ReLU(inplace=True)
            )
            (aspp): ASPP(
              (aspp1): _ASPPModule(
                (atrous_conv): Conv2d(256, 256, kernel_size=(1, 1), stride=(1, 1), bias=False)
                (bn): GroupNorm(32, 256, eps=1e-05, affine=True)
                (relu): ReLU(inplace=True)
              )
              (aspp2): _ASPPModule(
                (atrous_conv): Conv2d(256, 256, kernel_size=(3, 3), stride=(1, 1), padding=(6, 6), dilation=(6, 6), bias=False)
                (bn): GroupNorm(32, 256, eps=1e-05, affine=True)
                (relu): ReLU(inplace=True)
              )
              (aspp3): _ASPPModule(
                (atrous_conv): Conv2d(256, 256, kernel_size=(3, 3), stride=(1, 1), padding=(12, 12), dilation=(12, 12), bias=False)
                (bn): GroupNorm(32, 256, eps=1e-05, affine=True)
                (relu): ReLU(inplace=True)
              )
              (aspp4): _ASPPModule(
                (atrous_conv): Conv2d(256, 256, kernel_size=(3, 3), stride=(1, 1), padding=(18, 18), dilation=(18, 18), bias=False)
                (bn): GroupNorm(32, 256, eps=1e-05, affine=True)
                (relu): ReLU(inplace=True)
              )
              (global_avg_pool): Sequential(
                (0): AdaptiveAvgPool2d(output_size=(1, 1))
                (1): Conv2d(256, 256, kernel_size=(1, 1), stride=(1, 1), bias=False)
                (2): GroupNorm(32, 256, eps=1e-05, affine=True)
                (3): ReLU(inplace=True)
              )
              (conv1): Conv2d(1280, 256, kernel_size=(1, 1), stride=(1, 1), bias=False)
              (bn1): GroupNorm(32, 256, eps=1e-05, affine=True)
              (relu): ReLU(inplace=True)
              (dropout): Dropout(p=0.1, inplace=False)
            )
            (output_conv): Sequential(
              (0): Conv2d(256, 1024, kernel_size=(1, 1), stride=(1, 1), bias=False)
              (1): GroupNorm(32, 1024, eps=1e-05, affine=True)
              (2): ReLU(inplace=True)
            )
          )
          (combine_coeff): Conv3d(1024, 1, kernel_size=(1, 1, 1), stride=(1, 1, 1))
        )
      )
    )
  )
  (img_bev_encoder_neck): MSDeformAttnPixelDecoder3D(
    (input_convs): ModuleList(
      (0): ConvModule(
        (conv): Conv3d(1024, 192, kernel_size=(1, 1, 1), stride=(1, 1, 1))
        (gn): GroupNorm(32, 192, eps=1e-05, affine=True)
      )
      (1): ConvModule(
        (conv): Conv3d(512, 192, kernel_size=(1, 1, 1), stride=(1, 1, 1))
        (gn): GroupNorm(32, 192, eps=1e-05, affine=True)
      )
      (2): ConvModule(
        (conv): Conv3d(256, 192, kernel_size=(1, 1, 1), stride=(1, 1, 1))
        (gn): GroupNorm(32, 192, eps=1e-05, affine=True)
      )
    )
    (encoder): DetrTransformerEncoder(
      (layers): ModuleList(
        (0): BaseTransformerLayer(
          (attentions): ModuleList(
            (0): MultiScaleDeformableAttention3D(
              (dropout): Dropout(p=0.0, inplace=False)
              (sampling_offsets): Linear(in_features=192, out_features=288, bias=True)
              (attention_weights): Linear(in_features=192, out_features=96, bias=True)
              (value_proj): Linear(in_features=192, out_features=192, bias=True)
              (output_proj): Linear(in_features=192, out_features=192, bias=True)
            )
          )
          (ffns): ModuleList(
            (0): FFN(
              (activate): ReLU(inplace=True)
              (layers): Sequential(
                (0): Sequential(
                  (0): Linear(in_features=192, out_features=768, bias=True)
                  (1): ReLU(inplace=True)
                  (2): Dropout(p=0.0, inplace=False)
                )
                (1): Linear(in_features=768, out_features=192, bias=True)
                (2): Dropout(p=0.0, inplace=False)
              )
              (dropout_layer): Identity()
            )
          )
          (norms): ModuleList(
            (0): LayerNorm((192,), eps=1e-05, elementwise_affine=True)
            (1): LayerNorm((192,), eps=1e-05, elementwise_affine=True)
          )
        )
        (1): BaseTransformerLayer(
          (attentions): ModuleList(
            (0): MultiScaleDeformableAttention3D(
              (dropout): Dropout(p=0.0, inplace=False)
              (sampling_offsets): Linear(in_features=192, out_features=288, bias=True)
              (attention_weights): Linear(in_features=192, out_features=96, bias=True)
              (value_proj): Linear(in_features=192, out_features=192, bias=True)
              (output_proj): Linear(in_features=192, out_features=192, bias=True)
            )
          )
          (ffns): ModuleList(
            (0): FFN(
              (activate): ReLU(inplace=True)
              (layers): Sequential(
                (0): Sequential(
                  (0): Linear(in_features=192, out_features=768, bias=True)
                  (1): ReLU(inplace=True)
                  (2): Dropout(p=0.0, inplace=False)
                )
                (1): Linear(in_features=768, out_features=192, bias=True)
                (2): Dropout(p=0.0, inplace=False)
              )
              (dropout_layer): Identity()
            )
          )
          (norms): ModuleList(
            (0): LayerNorm((192,), eps=1e-05, elementwise_affine=True)
            (1): LayerNorm((192,), eps=1e-05, elementwise_affine=True)
          )
        )
        (2): BaseTransformerLayer(
          (attentions): ModuleList(
            (0): MultiScaleDeformableAttention3D(
              (dropout): Dropout(p=0.0, inplace=False)
              (sampling_offsets): Linear(in_features=192, out_features=288, bias=True)
              (attention_weights): Linear(in_features=192, out_features=96, bias=True)
              (value_proj): Linear(in_features=192, out_features=192, bias=True)
              (output_proj): Linear(in_features=192, out_features=192, bias=True)
            )
          )
          (ffns): ModuleList(
            (0): FFN(
              (activate): ReLU(inplace=True)
              (layers): Sequential(
                (0): Sequential(
                  (0): Linear(in_features=192, out_features=768, bias=True)
                  (1): ReLU(inplace=True)
                  (2): Dropout(p=0.0, inplace=False)
                )
                (1): Linear(in_features=768, out_features=192, bias=True)
                (2): Dropout(p=0.0, inplace=False)
              )
              (dropout_layer): Identity()
            )
          )
          (norms): ModuleList(
            (0): LayerNorm((192,), eps=1e-05, elementwise_affine=True)
            (1): LayerNorm((192,), eps=1e-05, elementwise_affine=True)
          )
        )
        (3): BaseTransformerLayer(
          (attentions): ModuleList(
            (0): MultiScaleDeformableAttention3D(
              (dropout): Dropout(p=0.0, inplace=False)
              (sampling_offsets): Linear(in_features=192, out_features=288, bias=True)
              (attention_weights): Linear(in_features=192, out_features=96, bias=True)
              (value_proj): Linear(in_features=192, out_features=192, bias=True)
              (output_proj): Linear(in_features=192, out_features=192, bias=True)
            )
          )
          (ffns): ModuleList(
            (0): FFN(
              (activate): ReLU(inplace=True)
              (layers): Sequential(
                (0): Sequential(
                  (0): Linear(in_features=192, out_features=768, bias=True)
                  (1): ReLU(inplace=True)
                  (2): Dropout(p=0.0, inplace=False)
                )
                (1): Linear(in_features=768, out_features=192, bias=True)
                (2): Dropout(p=0.0, inplace=False)
              )
              (dropout_layer): Identity()
            )
          )
          (norms): ModuleList(
            (0): LayerNorm((192,), eps=1e-05, elementwise_affine=True)
            (1): LayerNorm((192,), eps=1e-05, elementwise_affine=True)
          )
        )
        (4): BaseTransformerLayer(
          (attentions): ModuleList(
            (0): MultiScaleDeformableAttention3D(
              (dropout): Dropout(p=0.0, inplace=False)
              (sampling_offsets): Linear(in_features=192, out_features=288, bias=True)
              (attention_weights): Linear(in_features=192, out_features=96, bias=True)
              (value_proj): Linear(in_features=192, out_features=192, bias=True)
              (output_proj): Linear(in_features=192, out_features=192, bias=True)
            )
          )
          (ffns): ModuleList(
            (0): FFN(
              (activate): ReLU(inplace=True)
              (layers): Sequential(
                (0): Sequential(
                  (0): Linear(in_features=192, out_features=768, bias=True)
                  (1): ReLU(inplace=True)
                  (2): Dropout(p=0.0, inplace=False)
                )
                (1): Linear(in_features=768, out_features=192, bias=True)
                (2): Dropout(p=0.0, inplace=False)
              )
              (dropout_layer): Identity()
            )
          )
          (norms): ModuleList(
            (0): LayerNorm((192,), eps=1e-05, elementwise_affine=True)
            (1): LayerNorm((192,), eps=1e-05, elementwise_affine=True)
          )
        )
        (5): BaseTransformerLayer(
          (attentions): ModuleList(
            (0): MultiScaleDeformableAttention3D(
              (dropout): Dropout(p=0.0, inplace=False)
              (sampling_offsets): Linear(in_features=192, out_features=288, bias=True)
              (attention_weights): Linear(in_features=192, out_features=96, bias=True)
              (value_proj): Linear(in_features=192, out_features=192, bias=True)
              (output_proj): Linear(in_features=192, out_features=192, bias=True)
            )
          )
          (ffns): ModuleList(
            (0): FFN(
              (activate): ReLU(inplace=True)
              (layers): Sequential(
                (0): Sequential(
                  (0): Linear(in_features=192, out_features=768, bias=True)
                  (1): ReLU(inplace=True)
                  (2): Dropout(p=0.0, inplace=False)
                )
                (1): Linear(in_features=768, out_features=192, bias=True)
                (2): Dropout(p=0.0, inplace=False)
              )
              (dropout_layer): Identity()
            )
          )
          (norms): ModuleList(
            (0): LayerNorm((192,), eps=1e-05, elementwise_affine=True)
            (1): LayerNorm((192,), eps=1e-05, elementwise_affine=True)
          )
        )
      )
    )
    (postional_encoding): SinePositionalEncoding3D(num_feats=64, temperature=10000, normalize=True, scale=6.283185307179586, eps=1e-06)
    (level_encoding): Embedding(3, 192)
    (lateral_convs): ModuleList(
      (0): ConvModule(
        (conv): Conv3d(128, 192, kernel_size=(1, 1, 1), stride=(1, 1, 1), bias=False)
        (gn): GroupNorm(32, 192, eps=1e-05, affine=True)
      )
    )
    (output_convs): ModuleList(
      (0): ConvModule(
        (conv): Conv3d(192, 192, kernel_size=(3, 3, 3), stride=(1, 1, 1), padding=(1, 1, 1), bias=False)
        (gn): GroupNorm(32, 192, eps=1e-05, affine=True)
        (activate): ReLU(inplace=True)
      )
    )
    (mask_feature): Conv3d(192, 192, kernel_size=(1, 1, 1), stride=(1, 1, 1))
  )
  (occ_fuser): BiFuser(
    (con_enc): Sequential(
      (0): Conv3d(512, 256, kernel_size=(3, 3, 3), stride=(1, 1, 1), padding=(1, 1, 1), bias=False)
      (1): SyncBatchNorm(256, eps=1e-05, momentum=0.1, affine=True, track_running_stats=True)
      (2): ReLU(inplace=True)
      (3): Conv3d(256, 128, kernel_size=(3, 3, 3), stride=(1, 1, 1), padding=(1, 1, 1), bias=False)
      (4): SyncBatchNorm(128, eps=1e-05, momentum=0.1, affine=True, track_running_stats=True)
      (5): ReLU(inplace=True)
    )
    (knn_enc): Sequential(
      (0): Linear(in_features=128, out_features=128, bias=True)
      (1): ReLU()
    )
  )
)
2023-10-28 00:48:42,098 - mmdet - INFO - Start running, host: jpan305@gpu1-28, work_dir: /hpc2hdd/home/jpan305/pytorch/MoEOccupancy/work_dirs/scale_multi_kitti
2023-10-28 00:48:42,098 - mmdet - INFO - Hooks will be executed in the following order:
before_run:
(VERY_HIGH   ) StepLrUpdaterHook                  
(NORMAL      ) CheckpointHook                     
…
